model/point_history_classifier/point_history_classifier.tflite (tflite, 6288 bytes, 6 tensors)

sequential/dense/BiasAdd/ReadVariableOp f4 [24]
00000000: 933b b7bd 2d6a 65bd 7d25 ccbd ca74 aebd
00000010: 4974 7dbd 5152 fcbd 918b afbd b90b c7bd
00000020: 9085 b8bd 7f77 c5bd 9858 c6bd 3f47 b0bd
00000030: e33f b8bd cdb7 cabd 318f 5bbd 9b10 cfbd
00000040: 4c44 92bd 5464 e2bd 21c0 c7bd 8d9f bcbd
00000050: dce1 97bd b7c6 fdbd 7b6d aebd 2f16 d5bd
-0.0894691 -0.05600946 -0.09968088 -0.085183695 -0.061878476 -0.12320388 -0.08571542 -0.09719033
-0.0900985 -0.09641933 -0.09684867 -0.08607339 -0.089965604 -0.098983385 -0.053603355 -0.10110589
-0.07141933 -0.11054292 -0.097534426 -0.092101194 -0.07416126 -0.123914175 -0.085169755 -0.10404622

sequential/dense_2/BiasAdd/ReadVariableOp f4 [2]
00000000: 2adc 8fbe 2adc 8f3e
-0.2809766 0.2809766

sequential/dense_1/BiasAdd/ReadVariableOp f4 [10]
00000000: 6461 743e d094 d43e 796d 253e cf19 3c3e
00000010: 8f5e 413e 5e0f 383e 7635 213e ca34 df3e
00000020: e5bc d03e f62a 5c3e
0.23865277 0.41519785 0.16155042 0.1836922 0.18883727 0.17974612 0.1574305 0.43594962
0.40769115 0.21500763

sequential/dense/MatMul f4 [24, 32]
00000000: 68a1 75be 3ad1 973e d0d1 2cbe 2c43 d43d
00000010: c230 ecbe 236f 3ebe 7055 98be e90b d2be
00000020: b00b 84be ceed fbbd e149 3cbe 9604 97be
00000030: 4abc aebc c047 a6be fa1a fabb c71b 50be
00000040: 30da b13d 171e f3bd ecc2 e93e e709 4abe
00000050: 7e57 a93e f6e6 86be 5ece bb3e 4fe8 77be
00000060: 0efe 1c3e 34d0 a9bd 80ed 993e b6f4 3bbe
00000070: 3c03 ca3e e005 293e ced4 003e fa34 e13d
00000080: c989 9bbe 2846 0e3d 6534 4c3e be61 453f
00000090: 5700 a83d 64d9 133f aa3a ebbd 8b98 273f
000000a0: 12ba abbd 038c b03e 9ec7 a9bd f3ce ba3d
000000b0: b03e 08bf 0f3a dbbd 4973 babd e563 323c
000000c0: 76b3 c4be 21d8 7cbd 4b3a 51be deac 853d
000000d0: 405c 34be 7ea3 fdbc 2a9d fdbe bb93 83be
000000e0: f190 6ebe 7c93 8dbd 494e 65bd ce09 a1be
000000f0: 5ba9 693e 9e51 aabe 89b1 573e 554a 9cbe
00000100: 940b 10be 5e5c 92be c11b 82be c200 713e
00000110: abdf ea3e 2044 9c3f e172 513e ff65 4d3f
00000120: 2f29 ad3e d990 1c3f 921b 103e 4196 1f3d
00000130: 97cb df3e a041 15bd 3bf4 ea3e 1968 d33c
00000140: 1998 893e 0b53 7c3c 078a 91bc 55ee babe
00000150: c7d2 953e c129 033d 558b f73e be62 a4be
00000160: df0b afbd 6d91 2ebe a3a2 b93e 9fa0 7ebe
00000170: e9cf 663e a6f4 aabd 5077 d43e dcb5 84be
00000180: 4859 173d c860 453e c83c 91be a87d ff3e
00000190: 946d cfbd e902 4c3f 1d65 dcbe c3a0 ac3e
000001a0: 6dce eabe 27fa 153d 6fcf d4be b942 17bc
000001b0: ac65 19bf 9925 98be aa98 bcbd 4e98 3abe
000001c0: d278 d3ba 9fbb dbbd a94d 1bbd 21f5 61be
000001d0: 09c3 0d3e ddca a2be deb4 53be 943d a8be
000001e0: 5db0 bd3d aa03 9bbe c8d7 713e 1f3f eabe
000001f0: 799e 7e3e 784f a1be 3634 a43e d772 27be
00000200: 0860 033e 90f7 8b3d 1e39 3c3b bf7e 673e
00000210: 3833 183f 0aab 4e3f 2ace bb3e a48f 0c3f
00000220: 0a7c e43d 0a4d ea3e 8da6 16be d5ed 663e
00000230: bc44 a8be ff79 03bc 605c debd 2263 333d
00000240: 657e fabe f5db 5e3d 6c70 6fbe 8a50 3b3e
00000250: c5ce f9bd 2a5b a13d 0054 f8be 1ad9 3fbd
00000260: 2539 67be 24f8 4abe 7411 86be f487 cf3d
00000270: 0b57 c4bd 3bb2 fdbd c3f6 0f3c 9a0e 97be
00000280: 8784 98be a03b 023d f08e 803d 17a7 113f
00000290: 6084 2bbf 3229 303f de47 c3be d728 2b3f
000002a0: e238 d2be dcad 243f 4ce5 e0be 05af c83e
000002b0: da10 8c3d c380 e13e 8674 663e 312d 843e
000002c0: 6226 b63e 1a64 0c3e eb09 af3e b245 843e
000002d0: 073a 813e cccd 49bd b09d 133f d1b0 423e
000002e0: 316b 0a3f b42a 313d b700 ed3e f008 8b3e
000002f0: 0695 de3e 2266 d33d 2a51 ce3e 56c6 fb3d
00000300: 1375 25be c892 efbd 8f76 d8bd a990 65be
00000310: 3592 a63d edaf 23bf 6248 d03d e622 4dbf
00000320: 8b52 e63e ed5c fdbe 836c fb3d b404 7cbe
00000330: e962 903e e8f5 073e e4cf d63e 7875 063e
00000340: afa5 c03e aeb5 153d a50b d23e df35 003e
00000350: 0570 b13d b346 523e e3fb b53e f6e8 663e
00000360: cd32 eb3d e08e 823e 85e9 01be c717 293e
00000370: 6974 933d 0ffa 943e ee4a 78be cfb0 833e
00000380: 2c5b 383e 9424 60be 509b dc3f 1a1c 8fbe
00000390: 2b00 443f 4f43 c9be c5e3 183f 1eed 29bf
000003a0: b006 c03e 874e dcbe 78fa adbd 62b1 00bf
000003b0: fba7 aa3c c8f2 7ebe 30ef c0bd b3c1 6bbe
000003c0: fc52 b2be 11b8 32be 6e07 c9be 9033 35bd
000003d0: b2a4 0fbe 83a6 35bc c1c9 00be da51 8cbd
000003e0: 32c4 ecbe 9d98 013d b1da 0bbe 0622 a5bd
000003f0: f2b4 87be 5cae 5abe ac9e 8fbe 512d 28bd
-0.23987353 0.29651815 -0.16876912 0.103643745 -0.4613095 -0.18597083 -0.29752684 -0.41024712
-0.25790167 -0.12301217 -0.18387558 -0.29495686 -0.021330018 -0.32476616 -0.0076326104 -0.20323096
0.08684194 -0.118709736 0.45656526 -0.1973034 0.33074564 -0.26348084 0.36680883 -0.24209712
0.15331289 -0.08291665 0.3006401 -0.18355069 0.39455593 0.16506147 0.12581179 0.109964326
-0.3037856 0.034734875 0.19941862 0.7710227 0.0820319 0.57753587 -0.11485799 0.6546714
-0.083850995 0.3448182 -0.08290027 0.09121504 -0.53220654 -0.10704433 -0.0910402 0.0108880745
-0.38418168 -0.061729554 -0.20432393 0.065271124 -0.17613316 -0.030961748 -0.4953397 -0.25698647
-0.23297478 -0.06912896 -0.05598286 -0.31452793 0.2281851 -0.33265394 0.21063818 -0.3052546
-0.14066917 -0.28586096 -0.254118 0.23535445 0.4587377 1.220829 0.20453979 0.8023376
0.33820483 0.6115852 0.14073017 0.038961653 0.43710014 -0.036439538 0.45889458 0.025806474
0.26873854 0.015400658 -0.017766012 -0.36509958 0.29262373 0.03202224 0.4834849 -0.32106584
-0.08547186 -0.17047663 0.36256894 -0.2486596 0.22540249 -0.08347444 0.41497278 -0.25919998
0.03695038 0.192752 -0.28366685 0.49900556 -0.10128322 0.7969194 -0.43045893 0.337164
-0.45860615 0.036615517 -0.4156451 -0.0092322165 -0.59920764 -0.29716185 -0.09208806 -0.18222162
-0.001613403 -0.10729145 -0.03791586 -0.22066166 0.13843931 -0.31795397 -0.20674464 -0.3285948
0.09262154 -0.30276233 0.2361747 -0.45751283 0.2486514 -0.31505942 0.32071084 -0.16352402
0.12829602 0.06834328 0.0028720568 0.22606944 0.59453154 0.80729735 0.36680728 0.5490668
0.11156471 0.457619 -0.14711972 0.22551663 -0.3286494 -0.008024692 -0.10857463 0.043795712
-0.48924556 0.054408986 -0.2338273 0.18292442 -0.12197641 0.07878716 -0.48501587 -0.046837904
-0.22580393 -0.1982122 -0.2618519 0.10133353 -0.09586915 -0.123875104 0.00878686 -0.29503328
-0.2978861 0.031795144 0.06277263 0.56895584 -0.66998863 0.6881286 -0.38140768 0.6685919
-0.41059023 0.6432779 -0.4392494 0.3919603 0.06839152 0.4404355 0.22505388 0.25815728
0.3557616 0.1371006 0.34187254 0.25834423 0.25239584 -0.04926853 0.5766249 0.19012763
0.5406981 0.043253615 0.46289608 0.27155256 0.4347307 0.10322215 0.40296298 0.12293689
-0.16157942 -0.11697918 -0.10569488 -0.22418465 0.081333555 -0.63940316 0.10170056 -0.80131376
0.4498485 -0.4948496 0.12276556 -0.24611169 0.28200462 0.132774 0.41955483 0.13130748
0.37626407 0.036550216 0.4102451 0.1252055 0.08663944 0.20534782 0.35543737 0.22549805
0.11484299 0.2549963 -0.12686737 0.16512977 0.07199938 0.2909703 -0.24247333 0.25720832
0.1800353 -0.21888953 1.7234898 -0.27951127 0.76562756 -0.39309165 0.5972255 -0.6637744
0.37505102 -0.43028662 -0.08495039 -0.50270665 0.020832052 -0.24897301 -0.094206214 -0.23023109
-0.34828937 -0.17453028 -0.3926348 -0.044238627 -0.1402767 -0.011087063 -0.12576963 -0.068515494
-0.46243435 0.031639684 -0.13657643 -0.0806313 -0.26505238 -0.21355575 -0.28050745 -0.041058842

sequential/dense_1/MatMul f4 [10, 24]
00000000: e7a3 a93e 23ea 9b3e d8b2 02bf 3cd2 973e
00000010: 5d92 923e af74 08bf 7062 223f 3c84 79bf
00000020: 09e2 3b3e 4552 febe 0a6b 0c3f 59e3 263f
00000030: 6aab d53e 7cb6 163f 4038 1f3e 45bf 37bf
00000040: 1546 803d 5477 763e c8b2 823e 9704 b63e
00000050: 923a 67bf 7e2f 42bf 115e 51bf 9ee2 02bf
00000060: 0cda 19bf 4806 74bf 0c23 b33e 8d83 52bf
00000070: 5f9d 47bf f59d 833f 2831 06bf 2069 583f
00000080: 9129 85bf e979 e23e b725 12bf 413e 69bf
00000090: 20a4 14be 95ef 2ebf 84a2 6ebf a4aa 843f
000000a0: 6641 9fbe 9b86 29bf c34a 32bf 7f63 04bf
000000b0: 0da7 823f e6b4 183f 66da 8f3f edc0 763f
000000c0: 23c5 c83e 438b cabc 8f16 ccbe c1ac 5a3e
000000d0: 52cf d03e 90f9 fbbe 628f 803e 69e0 25bf
000000e0: 1afe c13d 38f3 afbe e66b c03b 9b08 f43e
000000f0: b509 093e 2847 d23e 8e8d e43e 4d3e adbe
00000100: 72fe 883d 4d31 393f a0b4 f23e 3e1d dd3e
00000110: 8370 49bf cafd 3fbf e4e0 debe e0cc 26bf
00000120: 0403 c13e 63e1 f73e 4db2 01bf 960a 403e
00000130: d993 a93e 506f f3be dabd 513e 2264 56bf
00000140: 1e57 c53e 520c 07bf 7171 013f 3ff3 173f
00000150: a865 623e 2174 c63e 2d8d 003f 2fa3 0ebf
00000160: 69f6 c73e 6388 e63e 51b9 df3e 39db 2b3f
00000170: 9193 38bf 90db 5dbf 76c4 1ebf f8ec 9dbe
00000180: 77ba 0a3f e17f 863e 3b6e 9cbe 7a5b a23e
00000190: 8a33 cb3e ec8e bfbe 0339 2c3f c593 00bf
000001a0: dbad 8b3e a7ab 0ebf deee c13e 1a11 363d
000001b0: 31c6 353f 54ec 0f3f 2be3 c23e 1c0a 28bf
000001c0: fa4b 1a3f 7176 ae3e 83b7 573e 95d7 8a3e
000001d0: cf71 51bf 193d 74bf 7e18 52bf ced1 28bf
000001e0: 2ccd c63e 41d7 213e f93d a4be d822 a13e
000001f0: fa49 fc3e b292 d6be d93e 893e b47c 36bf
00000200: d7ed 8c3d c79c 0fbf 8678 a53e c01a 393f
00000210: 1559 323f cace a83d be5b b33e f569 2bbf
00000220: b649 eb3e c91e 543f ed9f c33e 91c1 f83d
00000230: b46f 4abf 39e8 25bf eb7c 07bf 155b 3dbf
00000240: c7bb a73d bd85 d63e 7f37 81be d450 da3e
00000250: ebbc 873e 27ef 08bf b00b c53e 284b 3abf
00000260: b068 cb3e 166b 96be 606d bd3e e45c bc3d
00000270: 4add 213f 9d21 173f 608f d6bd 8a13 f4be
00000280: 9347 1a3f 6db6 4bbe 3e8f 52bc 85b4 493e
00000290: c355 38bf a9d6 16bf 6924 2bbf b71f e2be
000002a0: 4b53 27bf 9df7 57be cd23 793f 613e 13bf
000002b0: 928c 61bd d447 8e3f 3209 f1be 2210 243f
000002c0: 58de 45be 8bfb 523f ae9e 58bf 54a5 12bf
000002d0: 9ac3 12bf 9b07 17bd 608d 00be 163a 8e3f
000002e0: d9d7 0abf 85b6 76bc a4e0 9abe 4ac3 34bf
000002f0: 2098 3b3f 9664 7b3f bb2e a23f a7a1 623f
00000300: 8e2d 56bf f78a 8cbf d150 8e3f dc1f 1bbf
00000310: 0415 5cbf 62f4 083f f234 afbc f9dd 2b3f
00000320: ae8d 98bf c904 293f 973f 63bf fb6d c7be
00000330: 5f4b e4bd a52d 20bf 43e4 7dbf 38d9 643f
00000340: bbe1 43bf 1aa3 b4be e7cd 38bf ab59 3ebf
00000350: 21bc 283f c99a 243f 257d 5c3f 1cb6 7b3f
00000360: b17e 5f3e af83 323e 51ac f3be c0de 4c3e
00000370: 6afa bd3e 4deb afbe 2cd3 303f 0ce3 57bf
00000380: 445b c93e d220 1fbf f9eb bd3e a4d5 e23d
00000390: 0f73 d93e b36b d43e 2a71 b03e dad2 01bf
000003a0: 6053 973e 99fc e23e e6ae 8b3e 69dc fe3e
000003b0: 6ab9 73bf f62e 5bbf 2201 50bf a567 35bf
0.3313286 0.3045207 -0.51054144 0.29652584 0.2862729 -0.53303045 0.63431454 -0.974674
0.18347944 -0.49672142 0.5485083 0.65190655 0.4173234 0.588722 0.15548801 -0.7177623
0.06263367 0.24068958 0.25527024 0.35550377 -0.90323746 -0.7585372 -0.8178416 -0.5112704
-0.6009834 -0.95322084 0.34987676 -0.8223198 -0.77974504 1.028258 -0.52418756 0.8453541
-1.040331 0.44233635 -0.570888 -0.91110617 -0.14515734 -0.68334323 -0.9321673 1.0364575
-0.31104583 -0.66221017 -0.6964533 -0.5171432 1.020723 0.5965103 1.1238525 0.9638813
0.39212903 -0.024724608 -0.3986096 0.21354963 0.40783173 -0.4921384 0.25109392 -0.6479555
0.09472294 -0.3436525 0.0058722375 0.47662815 0.13382609 0.41069913 0.44639248 -0.33836594
0.066891566 0.7234085 0.4740343 0.43186373 -0.78687304 -0.74996626 -0.43530953 -0.65156364
0.37697613 0.48414144 -0.5066269 0.18754038 0.3312061 -0.47545862 0.20482579 -0.8374654
0.38543028 -0.52753174 0.5056372 0.5935554 0.22109091 0.38760474 0.5021542 -0.5571775
0.39055184 0.4502593 0.43696073 0.6713138 -0.7210017 -0.8666315 -0.62018526 -0.30844855
0.5419077 0.2626944 -0.3055285 0.31710416 0.3968776 -0.37413728 0.6727449 -0.5022548
0.2728108 -0.5573067 0.37877554 0.044449903 0.7100554 0.56219983 0.3806394 -0.65640426
0.6027218 0.3407474 0.21066098 0.271176 -0.81814283 -0.9540573 -0.8206862 -0.65945137
0.3882841 0.15804769 -0.3207853 0.31471896 0.4927519 -0.41908795 0.2680576 -0.7128403
0.06881302 -0.560986 0.32318515 0.7230644 0.6966718 0.08242567 0.3503093 -0.6695855
0.45954674 0.82859474 0.3820795 0.12146295 -0.79076695 -0.6480747 -0.52924985 -0.73967105
0.081901126 0.4189891 -0.25237653 0.42639792 0.2651132 -0.5348992 0.3848548 -0.7277093
0.39728308 -0.29378575 0.3699751 0.09197405 0.63228285 0.59035665 -0.10476565 -0.47671157
0.60265464 -0.19893809 -0.012851534 0.19697769 -0.7200586 -0.58921295 -0.6685243 -0.44164822
-0.6536147 -0.2109055 0.9732025 -0.5751706 -0.0550657 1.111567 -0.47077328 0.64087117
-0.19323099 0.82415074 -0.84617126 -0.5728352 -0.57329714 -0.036872488 -0.1255393 1.1111476
-0.5423561 -0.0150581645 -0.30249512 -0.7061049 0.73279 0.98200357 1.2670511 0.8852791
-0.8366326 -1.0979909 1.1118413 -0.6059549 -0.8596957 0.534979 -0.021387551 0.6713558
-1.1918237 0.66022927 -0.88768905 -0.38951096 -0.111471884 -0.6256965 -0.99176425 0.8939395
-0.7651631 -0.35280687 -0.7218918 -0.7435557 0.6591206 0.64298683 0.86128455 0.9832475
0.21825673 0.17433046 -0.47592404 0.20006847 0.37105113 -0.34359208 0.6907222 -0.8433082
0.39327443 -0.62159455 0.37094095 0.11075905 0.42470595 0.41488418 0.34461337 -0.5071236
0.29555798 0.44333342 0.27281874 0.49777535 -0.95204794 -0.8561853 -0.8125173 -0.70861274

sequential/dense_2/MatMul f4 [2, 10]
00000000: 2495 883f c448 42bf 824d 8e3f 6759 a33f
00000010: 0334 a43f ae32 a53f aa8b 953f 8d9d 9dbf
00000020: 6a29 cabf 77f9 bc3f 4a1f 8cbf 9c41 cc3f
00000030: e8c7 52bf 895d 41bf a113 1fbf 935d edbe
00000040: bc95 88bf 47aa 4d3f 9a34 5e3f 69ef 8bbe
1.0670514 -0.7589228 1.1117404 1.2761658 1.2828373 1.2906091 1.1683247 -1.2313706
-1.5793889 1.4763631 -1.0947049 1.5957522 -0.8233628 -0.7553335 -0.62139326 -0.46360454
-1.0670695 0.8033795 0.86799014 -0.27331093
